Module2/save_models/PolicyModel/best_reward_critic.pth (torch, 2647 bytes, 5 tensors)

layer_1.weight f4 [30, 2]
0	0xbd9ab3c1	-0.075538166
1	0x3d7ad198	0.06123504
2	0x3e0c2979	0.13687696
3	0x3e2e677c	0.17031664
4	0x3c0d52b0	0.008625671
5	0x3d1dc6aa	0.03851954
6	0x3dca3b49	0.09874589
7	0x3db4db64	0.08830908
8	0xbda5631a	-0.08075543
9	0x3edc7977	0.4306142
10	0x3b93b148	0.0045072176
11	0x3d4ebd01	0.050473217
12	0x3da50117	0.080568485
13	0x3e939333	0.28823242
14	0x3e3343f3	0.1750639
15	0x3f0b2321	0.5435048
16	0xbd63b0a6	-0.055588387
17	0x3ee1c0e0	0.44092464
18	0xba038f23	-0.00050185825
19	0x3eb2ceaf	0.34923312
20	0xb92a2864	-0.0001622751
21	0x3c8b77dc	0.017024927
22	0x3cdb4068	0.02676411
23	0xbd57a191	-0.052644316
24	0x3d9b79f6	0.075916216
25	0x3da39d2b	0.07988962
26	0xbccffd6b	-0.025389394
27	0xbee160af	-0.44019076
28	0x39f57fb1	0.0004682518
29	0xbef34a5e	-0.47517675
30	0xbc71afb8	-0.014751367
31	0xbe9ed306	-0.31020373
32	0x3ce3312d	0.02773341
33	0xbb0a59ef	-0.0021110734
34	0x3ce27ba5	0.027646849
35	0x3c2ec005	0.010665898
36	0x3d2b1236	0.041765414
37	0xbd3c3bf6	-0.04595562
38	0x3cd62b4e	0.026143696
39	0x3e049ede	0.12951228
40	0x3e9c7b5c	0.30562866
41	0xbd9f0f0d	-0.077665426
42	0x3e07f8aa	0.13278452
43	0x3ebf02e6	0.373069
44	0x3d28cc3b	0.041210394
45	0xbdb39f00	-0.08770561
46	0xbb09ee9c	-0.0021046763
47	0x3ccc5d9d	0.024946982
48	0x3d99096e	0.07472502
49	0xbddeef79	-0.108855195
50	0xbe313c60	-0.17308187
51	0x3f0b4a31	0.5441008
52	0x3cfab41f	0.030603467
53	0x3e2723f5	0.1632231
54	0x3d3869b7	0.045022693
55	0x3ddff881	0.1093607
56	0xbd5d8ae0	-0.05408752
57	0x3f3516bf	0.7073783
58	0x3dceecf5	0.1010379
59	0xbec17e0a	-0.37791473

layer_1.bias f4 [30]
0	0xbf59c0f4	-0.8506005
1	0xbf2b6b69	-0.6696077
2	0xbf353c25	-0.707949
3	0x3ee68f1f	0.45031068
4	0x3fd069c5	1.6282278
5	0xbf213769	-0.62975174
6	0xbf9c5032	-1.2211974
7	0xbcaf6f80	-0.021415472
8	0xbe841fca	-0.25805503
9	0xbfdf9d66	-1.7469909
10	0xbf4245b6	-0.7588762
11	0x4007b7e8	2.1205997
12	0x3ff8683c	1.940681
13	0xbf79efd5	-0.9763158
14	0xc026129b	-2.5948856
15	0x3ff0a765	1.8801085
16	0x400fb0f4	2.2451754
17	0x400bf0b1	2.1865656
18	0x3fc7562a	1.557317
19	0xbfea8a38	-1.8323431
20	0xbf7032d8	-0.9382758
21	0x3f8524e3	1.0401882
22	0x400fe951	2.2486155
23	0xbf449d48	-0.7680249
24	0x3f97da26	1.1863449
25	0x3ea46239	0.32106188
26	0xbfd6ac4a	-1.6771328
27	0xbf786ccd	-0.97041017
28	0xbf89f93d	-1.0779186
29	0xbfcba5b2	-1.5909941

layer_2.weight f4 [30, 1]
0	0xc016efaa	-2.358378
1	0xbd5e2f0b	-0.054244082
2	0x3d26c56c	0.04071562
3	0xc02f564b	-2.739642
4	0x3ebc4386	0.36770266
5	0xbeaf35a1	-0.34220603
6	0xbfd5a953	-1.6692299
7	0x3cbca87a	0.023029555
8	0x3ff10222	1.8828776
9	0xbf31f642	-0.69516385
10	0x3e0e85a4	0.13918167
11	0xbedfeed9	-0.43736914
12	0xbfaddf7a	-1.3583825
13	0xbf6c5b18	-0.923265
14	0x3f635af8	0.8881068
15	0xbef12b3a	-0.47103292
16	0xbed62349	-0.41823795
17	0xbf00d6a3	-0.5032751
18	0xbf874c2a	-1.0570118
19	0xbe3b74d3	-0.18306284
20	0x3ee1ba5f	0.44087502
21	0xbe70ebed	-0.23527499
22	0xbf67bc5c	-0.9052179
23	0x3e2ef3b7	0.17085157
24	0xbf64b774	-0.8934243
25	0x3e4c186b	0.1993119
26	0xbee3886a	-0.44440013
27	0xbf121a93	-0.570718
28	0xbfe732df	-1.80624
29	0xbec9a1e0	-0.39381313

layer_2.bias f4 [30]
0	0xbf59c0f4	-0.8506005
1	0xbf2b6b69	-0.6696077
2	0xbf353c25	-0.707949
3	0x3ee68f1f	0.45031068
4	0x3fd069c5	1.6282278
5	0xbf213769	-0.62975174
6	0xbf9c5032	-1.2211974
7	0xbcaf6f80	-0.021415472
8	0xbe841fca	-0.25805503
9	0xbfdf9d66	-1.7469909
10	0xbf4245b6	-0.7588762
11	0x4007b7e8	2.1205997
12	0x3ff8683c	1.940681
13	0xbf79efd5	-0.9763158
14	0xc026129b	-2.5948856
15	0x3ff0a765	1.8801085
16	0x400fb0f4	2.2451754
17	0x400bf0b1	2.1865656
18	0x3fc7562a	1.557317
19	0xbfea8a38	-1.8323431
20	0xbf7032d8	-0.9382758
21	0x3f8524e3	1.0401882
22	0x400fe951	2.2486155
23	0xbf449d48	-0.7680249
24	0x3f97da26	1.1863449
25	0x3ea46239	0.32106188
26	0xbfd6ac4a	-1.6771328
27	0xbf786ccd	-0.97041017
28	0xbf89f93d	-1.0779186
29	0xbfcba5b2	-1.5909941

output.weight f4 [1, 30]
0	0xbec36bc0	-0.38168144
1	0xbd4e6d72	-0.050397344
2	0xbe0a50d3	-0.13507394
3	0xbede2950	-0.43390894
4	0x3eab46f9	0.33452585
5	0xbc05334b	-0.008129905
6	0xbde60569	-0.11231501
7	0x3e18a02c	0.1490485
8	0xbe20cc62	-0.15702966
9	0xbe852052	-0.2600122
10	0xbbcb404b	-0.0062027327
11	0x3ea5a049	0.3234885
12	0xbf3e4a81	-0.74332434
13	0xbe5d8073	-0.2163103
14	0xbf58c349	-0.8467298
15	0x3ea94b67	0.3306534
16	0x3f00e421	0.503481
17	0x3ef8d54e	0.4860024
18	0x3e8af377	0.27138874
19	0xbf0d5740	-0.5521126
20	0xbe689642	-0.22713569
21	0x3df0a64d	0.11750469
22	0x3e8df16a	0.27723247
23	0x3d8a2797	0.067458324
24	0x3e679eb5	0.22619136
25	0x3e2ac2f6	0.16675934
26	0xbf3cc37e	-0.737358
27	0x3a2b8866	0.0006543457
28	0xbf18efb9	-0.5974079
29	0x3eb4662d	0.35234204
