Module2/save_models/PolicyModel/best_reward_actor.pth (torch, 1951 bytes, 3 tensors)

layer_1.weight f4 [30, 2]
00000000: 583d 6abb 0794 aa3e 4783 a43e e3a5 c7be
00000010: 334b c43c 324e 993c 0388 263e 8884 a63e
00000020: 6b83 ad3e c484 9d3d 44b0 dbba ee53 ca3e
00000030: 69a3 56bc 51cd 2dbf 0620 943e 7d05 a93e
00000040: 48a2 3abf ae60 be3e 2778 773e 40ed c03e
00000050: 884c 7f3e 2a6c 003f 000a 8f3e 408e 03be
00000060: 552a 423d 6cd5 13be 4c60 a3be 050d e7be
00000070: dccc af3e 11fc b13e cf23 2f3f f370 51bd
00000080: 5b59 aa3e d2b2 aebd e9de a43e edcb 4c3e
00000090: 7b5b d03d 98b2 9f3e 016c a03e 9da6 debe
000000a0: 4523 853f b2da e6bd ab19 9cbb 0244 513e
000000b0: f21a 903e 7c01 cbbe 9cde 183e c047 76be
000000c0: 0892 263d 700d 45bc 7ceb 693d 46fa 47be
000000d0: c8ca df3c 8e1e 9b3f 5da2 8b3e 8eff aabe
000000e0: 382d 4c3d af2a d4be ea8b 0c3e c35f 30be
-0.003574213 0.3331606 0.32131407 -0.3899375 0.023961639 0.018714044 0.16262822 0.32522988
0.33889326 0.07691339 -0.0016760905 0.39517158 -0.013100483 -0.6789141 0.28930682 0.33012
-0.7290387 0.37183136 0.24166928 0.37681007 0.24931538 0.50165045 0.27937317 -0.12847233
0.047403652 -0.14436883 -0.31909406 -0.4512712 0.34335983 0.34762624 0.68414015 -0.051133107
0.33271298 -0.08530201 0.32201317 0.19999667 0.101736985 0.31190944 0.313324 -0.4348649
1.0401388 -0.112721816 -0.004763802 0.20436099 0.28145558 -0.3964957 0.14928669 -0.24050808
0.04066661 -0.0120271295 0.05710934 -0.19529065 0.027318373 1.21187 0.2727231 -0.33398098
0.04984781 -0.41438815 0.13725248 -0.1722403

layer_1.bias f4 [30]
00000000: 28c8 1abe c5c5 523e 76d2 a4be 29c2 4a3e
00000010: a05a 423f 6cd6 9abd 81b9 0ebf 6887 133d
00000020: 68c0 36be e21f e73c 0771 ccbd faf1 613e
00000030: 9cc6 afbe 53cc 0e3d 6ada 8d3d e3cd 3a3e
00000040: 1c4d ae3d 4d2d d83b 5d1f 9dbf 2434 633d
00000050: 1c3a dd3d 1ca5 c8bf fbb3 4e3c 5011 0fbc
00000060: c98f 06be cb94 1ebf 5bb8 04bf 2bdc 8c3b
00000070: d3c7 ba3f 11b6 ed3d
-0.15115416 0.20583256 -0.3219182 0.19800629 0.7591953 -0.07560429 -0.55751806 0.036017805
-0.17846835 0.028213445 -0.09982496 0.22064963 -0.34331214 0.034862828 0.06926425 0.18242602
0.08510801 0.006597197 -1.2275196 0.055469647 0.10802099 -1.5675387 0.012616153 -0.008732155
-0.13140787 -0.6194579 -0.51843804 0.004298707 1.4592232 0.11606992

output.weight f4 [1, 30]
00000000: cb22 63be 505e 55bf 19ef 80bc 01e2 38be
00000010: f8b9 63bd 2816 82be acd6 25be 0451 013f
00000020: 57b4 f53d 7994 7f3e 796a 0d3e 0107 54be
00000030: 279d 53bd a30c 3dbe a463 b5be 2715 983e
00000040: 5837 9d3e 8234 973d ad0c 0a3f 9aa3 363f
00000050: 6947 abbe 116d 4a3c b086 d6be 33fa e43e
00000060: a277 95be a9a4 b3bd b85e 0b3e f2af ee3e
00000070: e995 b83e 8251 47be
-0.22181241 -0.83347034 -0.01573901 -0.18054964 -0.055597275 -0.2540753 -0.16195172 0.50514245
0.11997288 0.24958982 0.13810147 -0.20705797 -0.051663544 -0.18461852 -0.35427582 0.29703638
0.30706286 0.07383062 0.5392559 0.71343386 -0.3345292 0.012355105 -0.41899633 0.44722137
-0.29192835 -0.08771641 0.13610351 0.4661861 0.36051872 -0.19464687
